Courses/SSY340/home-assignments/IHA1/utils/ann_weights.npz (npz, 717910 bytes, 6 tensors)

b2 f8 [1, 10]
00000000: f415 d4a9 0de1 e0bf 98bb d492 9cf2 debf
00000010: ad9f 7732 2373 df3f 1336 df56 fe5e f53f
00000020: 4984 1881 db6c 8e3f 654c 2412 ee03 e73f
00000030: d6b4 2096 d9b3 e5bf a795 9de1 58ed 13c0
00000040: ab73 2688 0616 0e40 4f4e 1e5d 6557 d63f
-0.5274723355257138 -0.4835578378578531 0.4914024346203359 1.3356917756494837 0.014856066586675836 0.7192297319728708 -0.6782043392355728 -4.981784367793273
3.7607546459898535 0.3490842255934909

b1 f8 [1, 100]
00000000: 6c87 f02c a9cd a6bf e068 6f44 1d16 b1bf
00000010: 055c b95c ece3 a9bf 3941 0a43 77d9 b1bf
00000020: 7dd7 5f02 5cea a9bf 6b27 10ff 4b58 9abf
00000030: 582b 06de 964a a9bf d262 a9d9 d4a1 afbf
00000040: 39ec ad22 608a bbbf 9e7a ea3f 574f b1bf
00000050: 0ef8 0a37 bf50 9fbf e57d 088e c738 c2bf
00000060: 4b9d 8a8b eea0 b0bf 9a12 2dd7 57e2 b8bf
00000070: 0d1f 304c ffdd aabf 0c9c 7c20 0250 aabf
00000080: d62d 6713 2636 a1bf 8b9e 1a1b 5d8c a5bf
00000090: e6d9 9fae 6630 babf 645d a3d9 063d 8bbf
000000a0: 6a1e c1f8 eee3 aabf 623d 6aa0 7416 b2bf
000000b0: a8b2 986d db4b a1bf 7277 3d00 447f a7bf
000000c0: 2e6c 7911 89e4 acbf 0f29 6cd5 c466 8c3f
000000d0: c9e2 4954 04f8 aabf 86e3 79ba eb3f c2bf
000000e0: c9c3 2990 f3cb afbf 0039 4b64 d1ec 9fbf
000000f0: 7e9b 1fdb fa55 9abf ed04 5e0c 43a8 c1bf
00000100: 03ae ea3e 1eb4 b1bf 80aa f8e8 47d2 cabf
00000110: ce7d 5b7f 6be2 a6bf 36ef 7085 923a adbf
00000120: df66 9677 9f86 91bf 518b 50d5 5908 afbf
00000130: 7ea1 f1a8 b12e c9bf 3742 e09c 54a3 afbf
00000140: 45ac f6f0 02f2 a5bf 3965 d79d bec7 96bf
00000150: 2f85 56d9 6d8e a7bf b6a9 8b42 fec4 b5bf
00000160: 3b19 37bc 724a 6fbf 869a 59de 9ff2 bf3f
00000170: df67 9b75 c077 aabf 3b22 3949 793c cfbf
00000180: e710 a251 7586 b2bf 49a4 674a 629c 9bbf
00000190: 7d99 92c0 d977 b8bf 56da 647f df98 a1bf
000001a0: 0ce2 50e2 c266 b1bf da18 3ecc 55df a6bf
000001b0: 7916 9ee8 7abb aebf 7314 2a03 8482 b0bf
000001c0: 7c31 058c 9217 f83f 3f63 2e6a 060a a7bf
000001d0: 7954 1e7d ee25 a8bf 8547 8d21 184e b1bf
000001e0: 4154 c1f8 e976 a3bf c449 70d3 6d51 b0bf
000001f0: a023 b6b4 68a1 b7bf 17d4 cfcf db49 8cbf
00000200: 3b6e d16a 76cb a33f 7fe0 be71 ce26 93bf
00000210: c197 463b 42d1 9dbf 1d50 ed49 ebb6 b6bf
00000220: 1cb6 8539 7ad3 aebf 0666 ad4c f226 b6bf
00000230: 1ec6 0cff f720 94bf 8e4c cf4d 9ab9 a3bf
00000240: aa19 73fb 6c02 93bf 8376 6556 5f56 a5bf
00000250: 8a98 3a47 a6f6 a3bf cc7d b1a1 4aec a7bf
00000260: 66ab 1dcf c7a9 aebf 5365 1c00 e340 98bf
00000270: 46ed 8634 f10f a3bf 5cff 8e8b 9186 b2bf
00000280: f2f1 e3b4 f5ef 83bf 6a8a 6150 5e01 a9bf
00000290: d79b 60d4 8088 b3bf a786 cfe2 6e86 a3bf
000002a0: 8552 733e 9db9 99bf 47b1 9e0d 3172 a6bf
000002b0: 35c5 8d13 fdeb cbbf 5f9c 248f bd61 aebf
000002c0: 3cba 89dd 203a a1bf abc5 dc8b 960f b3bf
000002d0: 0d89 ddb6 34d1 acbf ed6a 2c5d 4829 a8bf
000002e0: 6aa5 a3a1 a3eb 94bf 6881 ea3e a590 9fbf
000002f0: da4d 8c97 90a6 90bf b79c c1ad f4f9 a7bf
00000300: 0a37 6c40 e447 a0bf 7033 59b2 7d25 9cbf
00000310: 81f4 e57c 5f4a b3bf ab81 b5e8 b9ed a9bf
-0.04453781770304385 -0.06674368782788376 -0.050567041701178574 -0.06972451578827056 -0.050616145410386594 -0.02572745079309106 -0.04939719639067758 -0.06178155095103012
-0.10758019301094714 -0.0676168948216209 -0.03058146260695343 -0.14235777316296985 -0.0649556246449851 -0.09720372203180219 -0.0524749546530626 -0.05139166494910094
-0.033616247051749745 -0.042086515005675805 -0.10230104220668287 -0.013299993054188781 -0.0525202444701421 -0.07065514484769644 -0.03378186905715569 -0.04589283469134288
-0.05643108690556918 0.013867891085756172 -0.05267346886552599 -0.14257570843963324 -0.06210290083698273 -0.031176826235246757 -0.025718612312541016 -0.13794744590635535
-0.06915463481953314 -0.2095422637515476 -0.04469619683890934 -0.057087496556475534 -0.01711510817913264 -0.06061058739603332 -0.19673748730862067 -0.06179298796644555
-0.042862026133058374 -0.022246340164064213 -0.04600852277804745 -0.08503712772986813 -0.00381967934820007 0.12479590586154118 -0.05169488368638019 -0.24403301310873524
-0.07236417048449405 -0.026963744918166808 -0.09557877494316887 -0.034369453717250906 -0.06797426247874955 -0.04467266195483584 -0.060024109740919714 -0.06449151112799871
1.5057549924414095 -0.044998360120365614 -0.047164395116092224 -0.06759787387025369 -0.03801661645471955 -0.0637425080497343 -0.0923066559972896 -0.013812749175466306
0.03866167119914762 -0.018702722256165757 -0.029118571155457355 -0.08872862391336907 -0.06020719482590328 -0.0865317761612446 -0.01965701574517286 -0.038525411604177426
-0.018563940856233842 -0.04167459420817201 -0.03899116153233802 -0.046724636304812245 -0.05988907244940016 -0.02368502319504746 -0.03723100439261855 -0.07236585290138237
-0.009735030730092274 -0.048838565170417805 -0.07630162415499285 -0.03813501852688477 -0.0251221246115443 -0.04383996287592367 -0.21813929991507455 -0.05933945057250222
-0.033646609347546236 -0.07445660509690437 -0.0562836144661266 -0.047189961789816916 -0.020430142155338706 -0.030825216260042337 -0.016260394334563923 -0.046828886232839144
-0.031798489441014224 -0.02748676682522294 -0.07535359191202141 -0.050641832024442245

w1 f8 [100, 100]
00000000: 5413 aaf2 5a2d 00c0 ce27 56a9 b9fe f3bf
00000010: 8804 e904 7e26 05c0 a12f 2757 b86a 0cc0
00000020: c0f9 7e67 868e fb3f 10a5 ee68 03ce ccbf
00000030: 4b0c 710b 6758 eebf a1d4 d561 7047 f73f
00000040: 0c8d 6c53 02c9 1040 fa96 fdd7 30f6 0fc0
00000050: 1544 2d20 1c94 ea3f 48a6 5d8f 413f 0140
00000060: ba94 7fd6 68b8 08c0 91e7 d3df 7019 e6bf
00000070: d0fb aa57 cd38 f3bf d823 c57e b8bb 1040
00000080: d45f 4240 6bb9 0b40 07df 211f 3142 ed3f
00000090: 4535 5049 2979 15c0 9f22 bbb3 40e3 0fc0
000000a0: 2419 f71a 4270 e13f e752 b67f 5a8e dabf
000000b0: 3ba6 90b1 90ce e8bf c4db 49ef d9fc 0340
000000c0: 9421 85b0 c6c4 0f40 8bb2 490a e263 f2bf
000000d0: 8372 12d6 9361 f6bf 4944 52cc 3ba3 d1bf
000000e0: bd23 312f 7ae4 fd3f 5809 1e9a c1e1 01c0
000000f0: edbf bf8d a894 0ac0 9058 5310 a132 e1bf
00000100: 7c2f f9df 79fd 0540 49e4 fd88 cf77 963f
00000110: 8111 0cf1 be84 f8bf cd43 a1f8 de22 e53f
00000120: 09ca 86be 6176 e1bf bcbd b88a 5291 f0bf
00000130: 44ec f3de 7a4d dc3f 74fa 2dad 635b 0140
00000140: 1e30 78ed 8d3d fd3f 6b37 34f3 4577 0b40
00000150: 120f 9ec7 3478 e93f 8e0e 01f3 05fc 0340
00000160: 1e2a b96c b3ae b6bf c2de 7dc7 e742 0b40
00000170: c264 8527 5ad8 d53f d841 3f68 4b37 00c0
00000180: b694 a18a 7f4a f23f 92c4 1e35 1f04 11c0
00000190: ca76 45cf c74c 08c0 3edb 9551 2de7 febf
000001a0: 581e 277b f3b3 0640 608d e3cc ae04 06c0
000001b0: bb56 0bf8 9c2c ef3f 81a0 d40f 2d5c 07c0
000001c0: 1c19 9499 ca7e 02c0 41d3 8fb2 f5ff 0840
000001d0: 5071 8a21 a357 acbf 26c8 25af dd26 e2bf
000001e0: 1e4a 34aa 9c52 c6bf 6f03 9c65 01a3 d0bf
000001f0: 901f ef9d 14ca 0bc0 0487 de7d a0f5 c0bf
00000200: d8ac e1f3 b3fb e83f 3db4 92c4 81a3 f03f
00000210: d4f6 4fb6 23cd 0740 79e7 55ab 4690 c53f
00000220: 5c3b 9c22 8c69 02c0 016c 56d6 8382 ff3f
00000230: 3444 c39e 87bb c43f 20be f200 7bc4 0fc0
00000240: 6c6c 1802 c9fb f7bf 4b5a efb9 ae75 f1bf
00000250: dd0f 8dbe d70a 0140 a578 4ed7 ea9f 1240
00000260: 9d29 0bdb 7bf3 00c0 7d59 8a04 3607 e2bf
00000270: 3f5d 95aa f9c8 0140 c9d9 2695 ceff e6bf
00000280: 6d22 b93c 2cd7 f4bf 9c08 1850 80cb 0940
00000290: 496a 6717 76f8 d03f c13b 9e4c 3391 fc3f
000002a0: c422 793a 754f 0540 bf30 4a9c 5f95 e73f
000002b0: a4ae 719e 2a39 e23f c7a5 e300 228a 7c3f
000002c0: 1191 d14e 938f c23f 9d92 9510 83d5 c13f
000002d0: f45f 9e87 b27a b13f 7788 faa4 0680 f73f
000002e0: 4a33 a3da eeea f7bf 56e7 bbec 0449 eabf
000002f0: 956a 33c1 1542 0040 927e 5b80 326c d1bf
00000300: 4528 8756 6270 0dc0 7d4f 12f5 8b92 eb3f
00000310: 9470 1395 0613 fa3f 2c41 0b1a cc98 eb3f
00000320: d4dc 012d 0f86 e33f f01c 6bfb 3208 adbf
00000330: c14f cfec 95f4 03c0 e90c 1322 ab47 0340
00000340: cd19 611d ad22 f9bf bb83 7361 3ab1 0ec0
00000350: 2556 0f41 870e 00c0 56df a98c 38d3 f3bf
00000360: 86e7 d759 f301 d8bf 23f4 5f96 8e5b f6bf
00000370: 31bf 9a16 593e b6bf 433d 6bc0 d7d0 d4bf
00000380: 78d2 a242 80e7 e0bf 36f4 720a 2234 fe3f
00000390: 3d71 fb9f b2fc f03f ec4d c4d0 88d8 13c0
000003a0: cb31 049d 733b dbbf 7ab1 174a 4020 d43f
000003b0: 20f3 c6e2 3624 fcbf 76c7 8bfa a9bd fbbf
000003c0: 9659 bf54 52ec f2bf 624e 98ef e528 f2bf
000003d0: 6f35 8815 2431 b0bf 1ac5 9801 5220 dcbf
000003e0: 165f 392c 8a2a d43f 369e 3e79 d234 f93f
000003f0: 7a9c cfab 803e 08c0 3296 b46a c02c ea3f
00000400: 6735 8672 1ae3 ffbf 6895 1781 e1f9 e93f
00000410: 7920 d3f8 d0cf 0840 6e36 a17c 9294 09c0
00000420: 9b66 da92 2b55 fd3f d672 8f3e 6725 dbbf
00000430: 06aa 444f 8df7 06c0 90ee 5c11 6080 c83f
00000440: 0b9c 6052 2745 ecbf fe97 07a6 9f91 0dc0
00000450: c867 e88c 3348 0e40 ee25 a0a7 1653 fabf
00000460: 2f5d a296 9bbe fe3f a11d a8ba 3307 e0bf
00000470: 1c93 9e3c 0a20 0ec0 008e afbf eb89 fcbf
00000480: 0fd4 fc10 4590 f83f f1e1 3078 2f1c ff3f
00000490: 3a7f bc41 0a88 e3bf 6ece 5b74 7ae9 e3bf
000004a0: dd8e d437 3dc9 0bc0 1e8a 54ca e2e3 e0bf
000004b0: 682b 1c36 fdbd dbbf 973a 7c2f 1297 bd3f
000004c0: c472 d97f c595 f8bf a6e0 bc7f 2a86 f03f
000004d0: 7523 d93b e977 12c0 e6ab d2db d582 be3f
000004e0: 482f e4d3 e4b8 c3bf ed15 84c5 8402 e23f
000004f0: f0aa 9a31 b2a3 d73f 8342 2af2 8d37 12c0
00000500: 4821 acba 78bd e03f 6baa 6542 2bb8 18c0
00000510: 1f40 b805 440a fe3f b958 45db a27a d2bf
00000520: fc01 705f d938 e6bf 61af d862 268b 0a40
00000530: fe9c 9224 d529 febf b156 176d cece fabf
00000540: d9f9 b2b3 6468 fdbf 092d 69f6 3a7f 08c0
00000550: 4267 8d0f 156d fe3f 033e d07e 2c0a efbf
00000560: 3603 bc21 bbf7 0d40 90ea 8d8d 2681 eebf
00000570: 28f3 8109 7338 07c0 885b 4f75 23c6 eebf
00000580: 943d 7605 0723 c73f 6f54 0d19 66cb f6bf
00000590: 5f48 1db0 875e a4bf 04e8 effc 8d27 f0bf
000005a0: acac a450 c537 01c0 09d4 aeac 8084 0540
000005b0: 693c c83a d4e6 c3bf d043 eb9c 7ac2 be3f
000005c0: 46a1 65be b599 e6bf 70d8 252e 3892 f33f
000005d0: c3e2 8116 6402 febf de14 fad2 37f0 dc3f
000005e0: 27be 4808 203c ea3f 6d98 04bd 38b5 e03f
000005f0: 23ab 5bdc d526 c33f e3f4 eb3f 5f6a ebbf
00000600: 40e1 3e1a 115f e33f cc7a 3cf2 fe1c f4bf
00000610: 4ec3 00bc a886 05c0 3809 915d 4f72 dcbf
00000620: a2df d1b6 9431 dcbf 2123 6c59 9535 edbf
00000630: c12a 000d 4f35 e53f 548f 211f f7f4 fabf
00000640: d694 2dad 7fde e93f 238f 2b6e f49e d93f
00000650: 18d2 ecf1 0c0f e7bf 9064 71d6 7fd5 ebbf
00000660: 0691 0e34 dfcf d83f 6ad4 500e 3419 e8bf
00000670: f364 8bdc bd4e e03f 2721 3aa6 1f9f 10c0
00000680: 9205 c7d2 4078 16c0 fbf2 fa77 f087 f43f
00000690: 7172 4922 a494 03c0 7db1 2ca4 2bc0 bb3f
000006a0: 5ee2 2f70 2607 f73f c12d 92d2 526b f0bf
000006b0: 77b4 5fbb 0bb9 fa3f eb62 c8d9 5b6a eebf
000006c0: 328a 04fa 83e2 f13f 09f2 75c3 e96e e5bf
000006d0: 7bda 1d1b c841 fcbf 2b4f aa9b 8059 0740
000006e0: 71ce 7930 9013 e2bf 0a25 5ffc 373a a83f
000006f0: a829 72da 1164 dbbf 99c1 df7b fbe3 eb3f
00000700: 7e73 285b f542 d93f 9e91 45cd f6c6 f3bf
00000710: aaaf 6233 c0fd 00c0 3755 e4bc a043 a2bf
00000720: 4849 9b3f c016 0ac0 e480 db0b 6b66 d93f
00000730: f0b7 c19b 7404 f13f 9a58 4133 ece7 edbf
00000740: 5dfc c8d5 d534 febf c9d2 7f25 7b79 afbf
00000750: 7444 06d2 eb28 d6bf 214e a743 eb91 e7bf
00000760: 89e2 0d28 2696 fdbf 077e 0ad2 4c11 fc3f
00000770: 1732 3567 5d55 0240 7941 e7bb ee9c 10c0
00000780: 61cb b039 bbfc f7bf 1e18 90e9 f6e0 07c0
00000790: 1508 87aa 4c8d ecbf 49b2 541b 242e 02c0
000007a0: 345b 49ed a91a 00c0 32f0 2f7d d448 fbbf
000007b0: 5083 d9c4 afa3 f13f 48c8 4311 accd f7bf
000007c0: 84d6 b7da 6eb5 09c0 670e 2761 efb8 e1bf
000007d0: b9e9 a68d 6278 e13f 2b4d 6938 5497 0fc0
000007e0: 902c 4821 33bb f4bf 7dae a0e0 4c2d 1cc0
000007f0: e555 0d4e 9505 eebf e085 4ef7 7c7c e6bf
-2.022146125617306 -1.249688779326323 -2.6437950500117644 -3.5521094139894136 1.7222961466610371 -0.22503702758448485 -0.9482913230389242 1.454941160363241
4.196297935009408 -3.9952103494896365 0.8305798176244276 2.1558867645697184 -3.090043712395155 -0.6906055804858956 -1.2013677048232587 4.1833209808182445
3.4655365963226163 0.914330063634197 -5.368321557541383 -3.985963253162779 0.5449533964790914 -0.4149385688008764 -0.7752154796664351 2.498462552491647
3.9710820952061088 -1.1493854905958496 -1.3988226282300793 -0.27558798745400687 1.868280586570321 -2.235232547799722 -3.3225871156828277 -0.5374303168162147
2.7487676141662956 0.021941416488946684 -1.532408658590697 0.6605067115834743 -0.5457009049626446 -1.035479108697344 0.44222900173889834 2.1696237115532373
1.827527930846379 3.4332388878164486 0.7959236048486409 2.4980582222650076 -0.08860322384240546 3.407668646363022 0.3413300882289826 -2.02699929659887
1.1431880393295564 -4.254025297167702 -3.0374904816697823 -1.9314397036484503 2.837866747027686 -2.752286530203193 0.9741959423651773 -2.9200078236354448
-2.311909866172881 3.12498034955425 -0.05535611900742998 -0.567244379124763 -0.17439611731295285 -0.2599490635184826 -3.4736721361732137 -0.13249593873938903
0.7807254565535926 1.0399186781535399 2.975165771785081 0.1684654556846075 -2.30153681792528 1.969364011055177 0.1619729542931353 -3.9709377359465776
-1.4989709932185873 -1.0912310851178002 2.1302943121718116 4.656169284977442 -2.1188885796338597 -0.5633802498512491 2.2231324507553434 -0.7187264359588933
-1.302532422256401 3.2243658311209185 0.2651648739389754 1.7854493134397986 2.6637978141992296 0.7369840672049789 0.5694783300982249 0.006967671228474476
0.14500657414021892 0.13932836828020792 0.06827846346857297 1.4687563366392433 -1.4948566952254674 -0.8214134811125671 2.0322680562797566 -0.2722288373460994
-3.679875064849542 0.8616390024712782 1.6296449492720386 0.8624020107909351 0.610114658264957 -0.05670317954132453 -2.49442658431687 2.4099943792403917
-1.5709658763531593 -3.8365371335389375 -2.0070939142995194 -1.2390676016493294 -0.3751190545441364 -1.397352778817784 -0.0868888549982756 -0.3252467516985755
-0.5282594014630169 1.887727776352461 1.0616937875084453 -4.961459409696072 -0.4255036385882504 0.3144684527931286 -1.7588414057237927 -1.7338046824411015
-1.1826957045028386 -1.134984908979185 -0.06324983144459904 -0.43947267681058266 0.31509641951332534 1.5753960357777834 -3.0305188582165643 0.817962845238702
-1.9929451440433128 0.8117530366259134 3.101472801154213 -3.1975450264642893 1.833293508191139 -0.42415791615876 -2.8708749955014836 0.19141770217708087
-0.8834416016514991 -3.6961052867000026 3.7852545746254442 -1.6452852771639033 1.9215350994252949 -0.5008791585577691 -3.7656445251362936 -1.7836720931744594
1.5352221168116136 1.9443812079390421 -0.6103564533150128 -0.6222507736806173 -3.473261295484788 -0.52781810300468 -0.43347101482566197 0.1155864110880692
-1.5365653032414892 1.0327553739316868 -4.6171006537705255 0.11918388954897771 -0.15408001276261474 0.5628074510320268 0.36936621517331414 -4.554252418355307
0.5231288572258928 -6.179852521376783 1.8775062774111644 -0.28873511708423966 -0.6944395889295829 3.317944309461311 -1.8852130344983489 -1.675489832055444
-1.8379866618630472 -3.062124180874552 1.9016314132226886 -0.9699919201684114 3.745962394285381 -0.9532654537900545 -2.9025631659300366 -0.9616868296824217
0.18075645224278658 -1.4246579149815053 -0.03978370690187271 -1.0096568947178648 -2.1522318172697705 2.6896985522130348 -0.15548184271071655 0.12015501338034018
-0.7062634199801685 1.2231981089257964 -1.8755837325281142 0.4521617470093825 0.8198394929694971 0.5221217815167286 0.14962266215965156 -0.8567348717184838
0.6053548348054747 -1.2570790731767145 -2.6907515228016683 -0.4444769300208864 -0.4405261788701812 -0.9127909418612924 0.6627574209136001 -1.684805986028512
0.8084104902633509 0.4003268314247512 -0.7205872273539766 -0.8698119343126951 0.38768749316865614 -0.7530765800098724 0.5096120173940605 -4.155394170091575
-5.617434781453442 1.2831883131722737 -2.4475786856331117 0.10840103872459923 1.4392456419283444 -1.0262020326070884 1.6701772040644565 -0.9504832509583968
1.117801643974087 -0.6697892015068315 -1.766059976505544 2.918702331671644 -0.5648880907815067 0.04731917339047172 -0.42798277218448755 0.8715798777976033
0.39471181776189457 -1.2360752123287067 -2.1239017500392565 -0.03567220979509005 -3.2611088723435024 0.3968761077685612 1.0635877689596747 -0.934560871227194
-1.8878992415409563 -0.06147370178942919 -0.3462476302166302 -0.7365623780592082 -1.8491574825876873 1.7542236523366925 2.2916820586308506 -4.153254447927218
-1.4992019895114128 -2.9848459479426444 -0.8922484713186828 -2.272529805681448 -2.013019422341495 -1.705280770313959 1.1024625482024994 -1.48771292442372
-3.213590344176568 -0.5538250825415617 0.5459454313889217 -3.948891106332345 -1.2957030582499875 -7.044238576705195 -0.9381815456824226 -0.7026963072022987

w0 f8 [784, 100]
00000000: 723e a2a0 995d 0440 f7a6 3673 7eff f6bf
00000010: ba2b a70b 933e 0a40 46f9 4dc1 5a5e ca3f
00000020: 185b ba3a d943 0940 fb28 cb10 8faa 0340
00000030: 90bd 2e27 7e57 a9bf e59e ef03 547c fcbf
00000040: a3f3 3bf6 24f4 07c0 7f7b 6c93 6d59 fe3f
00000050: e465 1f14 800e 0ec0 22d3 7bed 2edb fa3f
00000060: 0f97 6d5f 3c49 a2bf 4dd3 2d89 d6f2 d9bf
00000070: 4973 aff9 20fe e0bf 459f 0ae3 cbb3 0040
00000080: 8070 67a6 8246 00c0 d515 e282 27fd d8bf
00000090: 42d3 c000 8e8c f83f 1c5b 56dd 7833 f83f
000000a0: b838 e11c 52e0 1040 4d67 8c3b 5668 0a40
000000b0: a071 5506 0062 0240 4fe8 169b 0470 0640
000000c0: 6f96 755a eaf4 f43f b333 3d39 1056 f83f
000000d0: 5cdf 17ac 4277 0fc0 246f 64f3 4799 ccbf
000000e0: 6284 b41c 5fc1 e13f 9f2a 9fc8 923a f53f
000000f0: 7905 8ddd a199 e23f 67fa 8cec 2794 f1bf
00000100: c6d7 8753 c8e8 0ec0 f1af 198f 7f6f e4bf
00000110: 6ebe 7b57 dc06 dd3f c423 627a 0a89 ca3f
00000120: 52f7 7c1f a1e7 0040 7075 fd54 272a 0040
00000130: a65f 821c e2c3 0e40 a7c6 8de8 9ec3 e0bf
00000140: 599e d923 e6ff 11c0 8060 51f2 2894 d6bf
00000150: d14f 7583 1866 dd3f c5a3 0225 ab26 0dc0
00000160: 9524 2044 95bd 0740 ff4f 0067 071b b83f
00000170: 495c 88e4 539b f03f a759 f258 8396 f6bf
00000180: cc6b 4963 700c a0bf 44b9 155c 9831 e6bf
00000190: 2f4d caff 8697 d0bf 7198 9709 1435 f0bf
000001a0: e39e 7ac5 8280 af3f f910 f205 8bd7 c3bf
000001b0: 78e7 413e 49cf 00c0 da4e e981 dc24 fd3f
000001c0: e905 08a1 1ef0 fa3f 03c0 3f38 5c4e dfbf
000001d0: efab 4031 b450 d43f 42e1 4df4 7613 0ec0
000001e0: b224 bf7b 2fcb ebbf 4f5c 05ea 8ad4 e0bf
000001f0: 6213 762d ad7f d33f 8d63 73e1 8a4b f5bf
00000200: 4036 4623 d9b6 f0bf ad86 23f3 dab2 e0bf
00000210: 7dbf de2e a6a6 e5bf e4cc 51d4 1f5b efbf
00000220: 9f65 4523 816a e1bf 510d 6892 7554 d5bf
00000230: 9e46 cb8d 5118 533f c3a2 703c d966 03c0
00000240: e619 b9a6 f4bc 0740 ae99 aa5a 6525 0c40
00000250: 56b8 8110 9b35 05c0 6448 a4f9 31e5 0740
00000260: dbf9 6949 ab97 cebf da51 7b63 4afb 1340
00000270: a1b8 d709 d3c5 0040 de42 e3e9 b406 e8bf
00000280: 69f4 c398 9cda e2bf 406c c4db df1b 7ebf
00000290: 83b7 7871 e7e8 f4bf a0c7 0792 359b 0bc0
000002a0: 3e18 b845 81f5 fdbf da9f 1114 f399 e93f
000002b0: 03a3 8fb9 dc19 0640 f890 0e35 774c 1240
000002c0: 71ce 4774 e5b3 f7bf f69c 3b32 27ce f93f
000002d0: e2b9 3ba5 a069 d53f d0fb 50bc e546 0040
000002e0: ba2b fe2e 623e fabf 9759 ddd7 ecfb e3bf
000002f0: a57b 1600 3835 f33f 0701 fb7e c554 08c0
00000300: fffd f050 8ef1 d93f ddab f9d5 a827 0ec0
00000310: 2de5 8c5f 6766 f1bf 43a1 f5c4 5912 12c0
00000320: 8040 94b1 fffd 06c0 5919 11bd 5e3b d93f
00000330: 133f ac41 f874 e83f 39f9 d8c9 a31e ee3f
00000340: c89f 7a57 a3c8 c83f b106 1d23 563c 0440
00000350: b823 03f7 e125 0d40 b212 89d9 154f 08c0
00000360: 453e 718b 198c c13f ca9a 3fc7 1115 d23f
00000370: 5a3f 8146 30cf ddbf 5313 8407 ca25 7c3f
00000380: 0333 c04a c317 e0bf 629e d619 1379 0840
00000390: 342a 5e33 4b3e f4bf 899c 55d3 40c0 ecbf
000003a0: 38aa 8df2 4b1a f1bf 490c eb8b 5661 0040
000003b0: 8d73 04dd 6c87 fabf b098 c1fd e9c0 07c0
000003c0: aead 6ba4 9c8c f63f 513a dd0b c0e8 9fbf
000003d0: 39e3 e639 c83a 0a40 9c1c 0c17 6262 6cbf
000003e0: 79eb b7cc 797c 00c0 483e bd6e 5410 ea3f
000003f0: edcd d39b 0f69 08c0 c517 d4d4 a5a9 0040
00000400: 7c4e 1220 b9cb ed3f af52 30d2 e3df 0a40
00000410: 0c9c 32b6 e2f2 00c0 7992 5838 2008 b13f
00000420: 0fd6 cbbb 9128 01c0 fab5 4b89 1a2d 0340
00000430: a09f 8698 6b09 f23f 6032 c3bc 8d3c fcbf
00000440: 77cf 3913 5326 06c0 2fc0 c1fe 6d5a 05c0
00000450: eee4 9dbc e367 f23f edbd a685 8736 f13f
00000460: 9bde 3ea2 f04d eebf cc43 e3f0 ec0c e9bf
00000470: c5dd c20d d840 d4bf 6d2c 7d5b a304 11c0
00000480: f054 af1c a727 0040 3ac4 4d79 b98a f0bf
00000490: 2a83 da0d f379 02c0 53d1 6149 df10 01c0
000004a0: 12d9 d347 5860 d83f 22e8 8b18 4a64 e63f
000004b0: 79e6 0660 e998 d93f 0f66 ec06 6bc8 d5bf
000004c0: 6278 f09f 4461 d2bf d3eb 5073 20df 04c0
000004d0: 78fb 25f7 4cae d0bf 391e 4ade 6bb1 f6bf
000004e0: 2c8b 4e19 c155 0dc0 02a5 132a e8cb de3f
000004f0: b914 fb94 bb39 0cc0 3e92 aa77 7da6 fe3f
00000500: 22fb 801f 461c fe3f 8295 2e2e 2f1a 0f40
00000510: 44fd d489 0ca7 c33f 071c c68f 0e86 d9bf
00000520: eb0a e623 6f03 ff3f 2cb7 329d 2e34 9dbf
00000530: 3d36 ea45 75df e8bf f1d6 38ea e75b ebbf
00000540: 4c53 129c ff8d ff3f ff50 99e4 1371 e33f
00000550: d9bb 90c8 19af ffbf 809e 35f9 98c6 04c0
00000560: 1319 aa02 4544 04c0 2c20 f73a bd6f 0340
00000570: bd77 87d6 d021 1340 8300 de5b 1712 f83f
00000580: c187 a507 675b fcbf a6db 8bec df9d 1040
00000590: 7d2f e16f abed ed3f 4fd8 2496 2218 1040
000005a0: 5f26 07b0 9e6b ef3f 1f5f 210d 4219 db3f
000005b0: 0ec8 dbeb 0a15 fb3f 44c6 8fbe d6cf f53f
000005c0: 66a8 db2e dc4c e4bf 6a48 98d9 cb9b e33f
000005d0: fa3c a8b7 1c98 f33f 69e1 f51d 3afc b1bf
000005e0: 73c6 ed63 395c edbf 9cd9 2366 c01f ef3f
000005f0: 0392 082b 8556 dabf e122 d68d d1ce 05c0
00000600: a985 280c b85e fd3f 8992 9318 ac5c 0d40
00000610: a734 4c92 90f8 fdbf d255 981c a130 f03f
00000620: 0c04 96c5 e820 0540 075c 7316 435b d0bf
00000630: a619 3d9b 16f6 973f 8bb4 a6ed 68ca dbbf
00000640: 8e2f 9425 943a 00c0 3e41 3e47 3553 f7bf
00000650: 2196 b5c9 222b fdbf 7d85 5c11 be99 0140
00000660: b724 718c b2da f7bf 83fb 28d3 04fe e63f
00000670: 9e77 bb71 9379 e03f b473 5023 d90b 08c0
00000680: cd9c 3c2a 2cf5 09c0 8155 9a0e 3ac3 f6bf
00000690: a1c3 f260 9c05 0040 b8a8 b79a e097 fabf
000006a0: a946 b4df 3ee9 eebf c4ed ffc8 c3f9 0440
000006b0: 5bcf dd4b 1f4b cb3f e35c 1acc 8322 04c0
000006c0: fe65 76c9 9ff4 f5bf b6af d81f dcfd b6bf
000006d0: 171c 68ea 4e56 0540 398e c5a0 047c febf
000006e0: 502d a681 cc64 e7bf 5acf 94e6 dc5d 0c40
000006f0: a352 e8dd 1c58 0440 a8a0 9b1d 84eb d8bf
00000700: 46d0 59e3 69ff d23f 1cd9 9bd8 cbd6 d9bf
00000710: 8558 1c52 fd69 05c0 ee55 b207 d489 0040
00000720: 6b91 1eb8 546c fa3f 2018 6c56 5928 e03f
00000730: d8e8 7f05 b912 0240 ffac cad7 e98b cfbf
00000740: b86f edc6 c390 f93f 4531 79c2 3627 e33f
00000750: 45a4 7ea8 223e d0bf 1d31 ee3b 7a41 e43f
00000760: 0d0b e5f1 c2ee 00c0 815c 7485 09a2 0b40
00000770: 4120 9f19 1a7d 05c0 b292 eee2 23cc ea3f
00000780: 70ba 9f63 0d4d e03f ad2d d609 1b96 f4bf
00000790: 92ee 569a 9adc 10c0 6baf 6190 4760 e4bf
000007a0: f508 8166 d1d8 0040 9558 24bb ba8b ffbf
000007b0: 2080 4ced 53fa 03c0 7fdd b55a 5022 fc3f
000007c0: 806d ca42 d83f fcbf 7841 8deb ac97 e73f
000007d0: 3359 2781 7825 f53f da79 3e42 bee8 f0bf
000007e0: 77c9 6f5d 0eef 07c0 e89c 1cf4 7c82 0240
000007f0: b92e 30a7 6fbc f13f 8917 48b5 29c4 f0bf
2.5457031774056356 -1.4373764515425458 3.280553904570721 0.2060044711942714 3.1581291759606636 2.4582806884765183 -0.04949564197829226 -1.7803535608053889
-2.9942111241384324 1.896833015321789 -3.7570802280504143 1.6785115505892425 -0.03571499504941588 -0.40544665714633227 -0.5310215832392738 2.0877912271134016
-2.034428882629129 -0.3904513147502631 1.534315112058906 1.5125664373387684 4.219063235517915 3.3009457256529573 2.297851609690227 2.8046962849012185
1.3097938092772912 1.521011565771215 -3.9332326359544094 -0.22342776665106456 0.5548549233100284 1.3268001400744323 0.5812539412656142 -1.0986708870183521
-3.8636633420782998 -0.6386106295517476 0.4535437445001439 0.20730715728521265 2.1131002864848734 2.02058283232207 3.8456461169516443 -0.5238794843737268
-4.499901352078802 -0.35279296554427475 0.4593564304134335 -3.643881119864519 2.967569858771251 0.09416242851904143 1.037921803193756 -1.4117463564376551
-0.031344902152987325 -0.6935540960819613 -0.2592484949065747 -1.0129585623449453 0.06152733479149022 -0.15501535215674503 -2.1012139190542563 1.8214993548071363
1.6836229601179815 -0.48915772908276284 0.3174257737143184 -3.7595042310969413 -0.8685529152800398 -0.5259451456758003 0.3046677535970074 -1.3309429938001103
-1.0446406724835384 -0.5218329190067458 -0.6765929141456436 -0.9798735758653518 -0.5442510308159177 -0.3332799844503898 0.0011654659676207167 -2.425219032466289
2.9672635102499383 3.5182597239792903 -2.651174668272726 2.9869117263088345 -0.23900357327143137 4.995400957490768 2.0965939301450622 -0.7508186882133392
-0.5891859992695007 -0.007350801894314307 -1.3068613464815548 -3.4507857712387278 -1.8724377368357774 0.8000426666230809 2.7626280304870092 4.574673489584022
-1.4814199964720525 1.61283034918034 0.33457199226441336 2.0346178734030005 -1.6402303538950336 -0.624502584086076 1.2004928592138893 -3.0413923187589975
0.4053684034770128 -3.769364997560372 -1.0875009281574635 -4.517920567981778 -2.8740228532188326 0.394248661647358 0.7642785341904265 0.9412402098021523
0.1936229874747808 2.5294611685975146 3.6434974000771625 -3.038615893836629 0.13708800610264596 0.2825359769616794 -0.46577078709832664 0.006871976067718349
-0.5029007396675244 3.059118463384764 -1.2652084356838147 -0.8984684112191569 -1.0689200854054786 2.0475283557039217 -1.6580628045551038 -2.969196302862734
1.4093290732078958 -0.031161308979159866 3.2787022136293698 -0.003464881498419793 -2.060779189455783 0.8144933855891816 -3.051299302483804 2.082835829470215
0.9311185480496103 3.3593212529179577 -2.1185964807696163 0.06653024078020477 -2.1448092147427427 2.3970232702474705 1.127299876980011 -1.7647836087736763
-2.768713140680059 -2.669155111587336 1.1503636710970642 1.0758128376727385 -0.9470141571864191 -0.782827826007741 -0.31645776122919883 -4.254529408946024
2.019361709690763 -1.033868287890313 -2.309545620184868 -2.1332383854843697 0.380880422729562 0.6997423629211463 0.3999579847110009 -0.34035754848591265
-0.2871867715747439 -2.608948613078135 -0.26063846717436645 -1.4183157618698614 -3.6668722130865685 0.4811954890161162 -3.5281898154376816 1.9156469988312348
1.881902812063068 3.887785301968223 0.15353543024137128 -0.3988071826974537 1.9383384134568427 -0.028519371361361553 -0.7772775998616407 -0.8549689840935725
1.9721675964876395 0.6075534310171234 -1.9802491983971235 -2.5969714612472785 -2.533334751907327 2.42956014696758 4.783023216265005 1.5044168079912488
-1.7723150538154047 4.154174514805083 0.9352624116086045 4.023569437025869 0.9818871915860646 0.4234166267610692 1.6926373685096254 1.3632419055760616
-0.6343823352047024 0.6127681016826163 1.2246367620571719 -0.07025492888886266 -0.9175078345999296 0.9726259226725236 -0.41153077318657 -2.725985630128307
1.8356247401173766 3.6702501220737003 -1.8731847491028846 1.0118723980898392 2.6410689770132247 -0.2555701941723218 0.02339968988897003 -0.4342291184246469
-2.0286028800819116 -1.457814482015308 -1.8230312232275383 2.200069556842833 -1.4908929334654155 0.718508160039946 0.5148408147176615 -3.0057852515151016
-3.244713144278285 -1.422662789385271 2.0027396749578235 -1.662079433789172 -0.9659723633978575 2.6219554617980254 0.21323004917541763 -2.5168529458566
-1.3722226972225822 -0.08981109406948815 2.667142707159211 -1.905277851118525 -0.7310545475205945 3.545831490913696 2.543023809101514 -0.38937476054571585
0.29683921053151996 -0.40373512414170576 -2.6767527022266813 2.0672989465044713 1.6514479820408166 0.504925411981052 2.259141962972631 -0.24645731960968217
1.5978429575543327 0.5985368536289931 -0.25379244284210173 0.6329928560749384 -2.116582765390723 3.4541197229514755 -2.686084938210144 0.8374194557441881
0.5094057985096025 -1.2866468796008619 -4.2154335132178335 -0.6367528743698875 2.105868149578891 -1.9716136274560416 -2.497230390450582 1.7583774131179266
-1.7655871018422147 0.7372650719280918 1.3216481251780123 -1.056822069898422 -2.991726617788284 2.31371489250488 1.1085049181737487 -1.0478913384735924

b0 f8 [1, 100]
00000000: 049a 2aeb babf d9bf 80f0 d0ff 4fe1 e6bf
00000010: 5c5d f29c 83f7 c0bf 70bc 5786 b9a6 f2bf
00000020: a2ab ea6f 6a0f f2bf 0c6f 57a2 deb5 b43f
00000030: 7b55 66ee dd7e e3bf 595d 8cf5 56e1 e3bf
00000040: 7dac 3bec 8494 eabf f44c 36fb e025 e7bf
00000050: 5331 ab2a 611f efbf 3101 7c02 66fb f73f
00000060: 6798 98f6 d699 efbf 8767 dbf9 7569 0840
00000070: caa8 2daf d62b f13f c1ed 1a9f 5968 f1bf
00000080: cf21 16c6 adf7 ecbf b942 e056 f5f0 e83f
00000090: ce75 6dd6 9fd3 d0bf 302f c01a 6037 f3bf
000000a0: dcec 5816 4d6d debf 3a5e 82ae ec4f e0bf
000000b0: ef2c 0872 b632 e9bf 0392 bdae 1601 e6bf
000000c0: d9ce 204e 79a4 80bf 6ff4 9c9f 8ac4 f3bf
000000d0: 655a cc23 41c1 e3bf 7283 b876 5475 0240
000000e0: 181c 9fdd 0f77 f33f 3cf3 5d40 71d4 f7bf
000000f0: 97b8 41d9 f4ab d4bf 6de0 3fb8 144f d03f
00000100: 3a31 34c0 6446 df3f b95a 7423 96ee d2bf
00000110: 5dad e541 4765 fb3f c695 c6c4 b118 eebf
00000120: 084e b42c f8e3 d6bf 7449 fedf 40f1 fd3f
00000130: d600 1660 ed27 e7bf 2e12 f347 3614 e3bf
00000140: faa4 4fbd 97f7 efbf 2d91 f9e2 cb55 c7bf
00000150: 2feb 0d1d 725e dc3f 4720 5f71 73b3 d6bf
00000160: 41b1 d6be f475 f0bf cfa5 190f 1161 d9bf
00000170: 40b6 bfed e542 e1bf 1fa3 45e2 34fe f7bf
00000180: fb56 6b74 a017 edbf fb6d ada1 351b e13f
00000190: 33e3 66c4 01eb df3f bb3c 07f8 685f 8a3f
000001a0: 59ba b590 8998 dcbf d5d1 485d c22e e6bf
000001b0: 0a3c 2e04 5017 debf 3ee1 edc7 9b3f fdbf
000001c0: 18c9 a98a 17c3 c8bf 2b3f c4b0 5aaf dd3f
000001d0: 5733 42bb 3f15 d83f fab5 6758 6e99 d13f
000001e0: 4e2d a489 00e7 dcbf 5289 4d88 98d0 efbf
000001f0: 0c2b 52de eda8 eebf 5441 b345 0e6b e8bf
00000200: 45e3 171c 30b4 eabf 47a2 91c0 7d1e e9bf
00000210: 3755 a38f 43b2 f0bf 4e80 1cc3 a3b3 d63f
00000220: bb2f 9f08 e74b e73f 3b11 6496 1a9b d5bf
00000230: c440 1ca2 682e d4bf 6cbe 19b5 f1bc f0bf
00000240: b5e7 bf25 df61 d5bf 9130 d80b acba e3bf
00000250: 00df 5c30 be35 d9bf b0de 6486 4739 cc3f
00000260: 93cd c799 48cb e2bf 3801 8e70 0b6e b0bf
00000270: 0787 f9a9 d385 efbf 43ea d188 65ef e4bf
00000280: fe0f 721a 3f8a d03f bc4f ecc5 2f7b eabf
00000290: f329 4ed0 4451 edbf 0170 3c36 2669 e1bf
000002a0: f87a f16b 436f e9bf 4033 385c 09de e0bf
000002b0: 7fda 6caa 3b4f d8bf bcf7 dd69 7626 f9bf
000002c0: dc41 fe41 f1df dabf 48bf 46f2 d096 f0bf
000002d0: dab7 27c7 ab9e f2bf d3ea 5430 3f3a dabf
000002e0: a628 d4d7 7000 e73f 920e c253 4f0f edbf
000002f0: fc38 35a0 9517 debf c621 fbfe 8c12 d7bf
00000300: 6b98 05b1 ab1c e8bf 8fa6 e851 17b7 f0bf
00000310: 041a 5caf 468e e4bf 2645 76a3 e3e1 d6bf
-0.40232727971525173 -0.7150039669427457 -0.13255353129782577 -1.1657042739641632 -1.1287636157746666 0.08090011084953747 -0.6092366844410856 -0.6212572856774542
-0.8306297887733219 -0.7233738810049588 -0.9725805123685326 1.4988765809103592 -0.9875292602853393 3.0514945526201163 1.073202785768944 -1.0879760947271822
-0.9052342289806407 0.7794138619229535 -0.2629165262240719 -1.2010193867635728 -0.47542121107444557 -0.5097564133056445 -0.7874405123888247 -0.6876328862095423
-0.008126208969862091 -1.2354837641608147 -0.617340631407228 2.307290008073715 1.2165678650942535 -1.4893658174834874 -0.3229953881881413 0.2548267173110677
0.48867148179921893 -0.29581216299395013 1.7122261594875774 -0.9405144542003476 -0.35766414991050555 1.8713997602213484 -0.7236239315680233 -0.596217289472923
-0.9989737222178114 -0.18230579931981464 0.4432645114645081 -0.3547028166908643 -1.0287978605875454 -0.3965494773352391 -0.5394162791760166 -1.499562152743415
-0.9091341279806494 0.5345714719546203 0.49871868305085626 0.012877292699071998 -0.44681014186691 -0.693207914539523 -0.47017288597356865 -1.8280294236884198
-0.19345373411813038 0.4638277746425838 0.37629693304989104 0.2749896872836356 -0.45159924928221507 -0.9942133581319388 -0.9581212370115693 -0.7630683289844833
-0.8344955967614643 -0.7849720727072701 -1.043521462522518 0.35471433690873233 0.72801543888044 -0.3375917881642356 -0.31533256369676743 -1.04612894766242
-0.3340986126564716 -0.6165371161782948 -0.39390520785262595 0.22049802839477683 -0.5873148921513568 -0.0641791486541522 -0.9850862808054622 -0.6542232200875521
0.2584378965623272 -0.8275374284444221 -0.9161705082381658 -0.5440856036470906 -0.7948319538371313 -0.5271040726816878 -0.3798360027607614 -1.5718902717048726
-0.41991836018226336 -1.0368203605575719 -1.1637380389688503 -0.40980510444539425 0.7188038077740841 -0.9081188808344953 -0.47018948216727074 -0.3605072488831208
-0.7534998376329559 -1.0446999740183036 -0.6423676896091028 -0.3575371834095499

w2 f8 [100, 10]
00000000: 0e53 e8de 9d99 d6bf 5351 a1c8 2350 d43f
00000010: 59ea 6513 9f45 e4bf 3022 4e3f a4dc d03f
00000020: ea19 4b71 3449 bc3f 65f4 d6f2 f6e1 aabf
00000030: d0b3 8629 2ea7 11c0 d092 aa30 fc10 bf3f
00000040: 506c 37e9 3139 00c0 5fd5 7a9a f3e2 cc3f
00000050: 3449 70e0 1d49 f1bf 35c3 18cd 2e79 c0bf
00000060: 116c c572 800c e13f 13a7 a6e2 2a16 01c0
00000070: 9495 1300 e1f6 e03f e2bb c6f4 a387 e6bf
00000080: 855f 0307 73d3 e43f c1d0 5b7e b28b b5bf
00000090: 84de 6000 61e4 bcbf 4d0e b4c7 e5dd ea3f
000000a0: ab3e 63de 0685 d83f f313 9f78 89a2 ddbf
000000b0: 30c0 572d cdb8 eabf 8aeb 6c89 0159 d73f
000000c0: 9666 56ba 58a5 02c0 808d 5aed ff04 e23f
000000d0: 6b2c 5cfb fd64 e1bf b982 8aee c028 e1bf
000000e0: d9f4 4780 b19b b63f 8a61 a2da d7a4 e3bf
000000f0: 2985 e2a4 e796 aebf 354a 42dc 2913 0140
00000100: 267e 5542 1136 0d40 94f3 0247 4216 f43f
00000110: d2a4 1cec 3fcc 06c0 2c11 f017 b847 e33f
00000120: c1f8 21f1 bf58 eabf ab36 3e1e a78f b43f
00000130: 7b54 abe2 de83 fabf ed58 257b 477e eebf
00000140: 890e 4d6d b898 f0bf dade 020f a6f3 0bc0
00000150: 79de 6550 25a8 f3bf 25c6 1a4f 15d7 fabf
00000160: 5ef8 d314 4f3a 05c0 5d84 e5e6 b0e8 c53f
00000170: ef6c 983f 7038 08c0 cf21 a8b4 a70a d5bf
00000180: 1835 32f8 5782 dc3f 533b aceb d3bf dbbf
00000190: 83b8 f4f7 91fc e8bf 399d 930b 8210 d83f
000001a0: ed91 afd8 14a9 cf3f 522b b829 de55 b2bf
000001b0: ac3d e669 fb79 d5bf d8ff 1b2b 372c f0bf
000001c0: e7e1 9154 00c1 f3bf 92cd 3dae 9fb4 da3f
000001d0: b21e a4b0 2e74 d7bf ef8c aae7 c034 d33f
000001e0: 467a cbbc 3f63 d9bf 5091 a4b1 154e ce3f
000001f0: 3474 83df 6241 debf 6806 5711 a68c f33f
00000200: aab4 a1ee 756d da3f 467d d27d e3c9 e03f
00000210: 0d09 7d91 d2a8 ef3f 8755 335f afbc eabf
00000220: 85ee 8d85 a352 e33f 1175 f201 9a07 e03f
00000230: eb91 e503 874e 0440 0f72 1c95 ce29 fdbf
00000240: fba9 f928 07a0 17c0 7574 ac6d ad60 f43f
00000250: c6b2 2306 5a73 10c0 3f7f c416 ff0a 0340
00000260: c9da 1fa4 6ac5 e4bf 3546 5d74 fe4b 01c0
00000270: aa79 f042 1006 f73f 2d58 2249 dd7f 0340
00000280: 9ea3 25a5 733d ed3f 0490 0afd 2052 09c0
00000290: 678c 12b3 4094 e5bf a939 4efe 737a e1bf
000002a0: d60f 6271 a356 cbbf d257 c420 019b da3f
000002b0: 3306 5010 a463 e33f fc86 1087 ac10 fbbf
000002c0: 1976 9232 ff78 d73f 6f45 cc58 0f58 f5bf
000002d0: bf47 dd59 36d9 01c0 3f14 318a 2ba5 a2bf
000002e0: b0b3 36ac f43a f23f 389a f3e1 9949 07c0
000002f0: c2a5 335c 2c74 e43f f6ef 30c4 94f5 efbf
00000300: de5d 6be9 1b67 0840 98f8 f405 bd52 e3bf
00000310: a9e6 65f8 5dc3 c63f 9d24 ee35 7e66 f63f
00000320: b4ab 00ad 7a7b 00c0 6771 e357 abd2 f4bf
00000330: 7871 1524 110d ffbf a9a7 40fd ec95 a0bf
00000340: 37d5 43d0 91eb ffbf b7e0 f47b c5b0 f33f
00000350: 3ee0 563c fad6 b6bf 11fc cd64 1652 0fc0
00000360: d8aa 061d e2fc 02c0 1349 4879 f0b5 f1bf
00000370: dd7c f7ac 8328 f4bf 431f 0fd2 9992 c83f
00000380: b656 efaa 4236 b63f 5fed b785 30fc f3bf
00000390: 92ec b745 8f53 923f 593b a2fa 9ff1 803f
000003a0: 0443 c41d a707 b63f 3244 8d77 d5fb 8f3f
000003b0: 69c8 425e b651 aebf c3fe d067 840d c4bf
000003c0: 3fdc 239a 619b f03f 97f4 91d7 29ee f33f
000003d0: 65df 98af bf2b e3bf c716 62ba 4782 0a40
000003e0: 27c2 7c0d e455 01c0 2ffc 3140 d1f1 f33f
000003f0: dd79 60c4 516f bcbf da55 442c 97b3 fcbf
00000400: d761 ee51 9456 e8bf 5fea b9fb 87c3 04c0
00000410: 67fc d4e9 cae5 f43f 84ba 5b8c 378c f1bf
00000420: 5822 bc59 94b5 fd3f 1c3e d8e5 cd58 f53f
00000430: 8038 e275 23b6 fdbf 5f45 1c1a bf77 f3bf
00000440: 86a0 e4dd a1e0 0ec0 f0d4 c43f 9bdc ff3f
00000450: cf72 41ef 59d8 f73f c2d0 e00e 974a f8bf
00000460: e496 404b 6cc5 fbbf 9d33 872c 55c6 f0bf
00000470: 1632 099b a0e8 f8bf 8574 3793 501e bf3f
00000480: 1a63 162d 0aea ea3f 4bd8 077f 75a6 ee3f
00000490: 7795 b092 8924 f63f 25c1 bb10 22f9 fa3f
000004a0: 963b ad57 489b ec3f ba62 2c75 cd2f fb3f
000004b0: d45d 54e6 fa6c fdbf fbc5 7f96 e2a8 babf
000004c0: 3d59 9c88 3bc4 fe3f 8262 2ab9 11be d4bf
000004d0: 7294 5a4f d47d f93f 445d d986 37b8 efbf
000004e0: 825b bebd 3abf fb3f 4369 af8d f67d c13f
000004f0: fb5f 7909 477d fb3f bf4a d414 b95b ecbf
00000500: b783 5f08 0172 03c0 8399 5715 a16f 09c0
00000510: 9a3b 5f09 0c23 e83f 8900 b6c3 7e90 58bf
00000520: 99b3 2a85 4e0e bdbf 081c 2545 db22 ed3f
00000530: d74e f31f 37a8 cebf f194 d678 9125 0c40
00000540: f649 7e50 804e d4bf 6829 4153 a4c4 ecbf
00000550: de54 12df 1de7 f53f 6a53 7b71 65cb f63f
00000560: 8714 b759 0dd9 07c0 c11d 22b3 3cb6 f0bf
00000570: 05e3 7bf3 741a f93f 777a b890 c62b f63f
00000580: 2517 a689 1519 fcbf 706f 676a 4653 fa3f
00000590: 36aa 93c5 98df ed3f 56c6 b0b7 53b5 f8bf
000005a0: eca7 aa9b d335 f2bf 926a 173e 97f8 fdbf
000005b0: 6ae5 c054 1a24 ee3f 1b9b 73d6 93ab f8bf
000005c0: 9f58 c461 7d01 d33f 220d e0f1 8ff5 bd3f
000005d0: cfe4 5566 e828 fc3f 128b df23 69d3 e7bf
000005e0: 3d6e 4074 ead2 dabf 2807 d828 f1c6 e4bf
000005f0: df83 9a5b f9f9 0f40 d09f 21ac 9c04 03c0
00000600: da72 d041 af6c fdbf 86fd b8cd aca2 f3bf
00000610: e48b e860 6791 00c0 458a 00b7 6a7a f2bf
00000620: d4f2 2844 aec2 0740 8916 64f4 8f93 f8bf
00000630: 69d6 9071 d331 fa3f 87b4 4e98 209e 0d40
00000640: a571 65c6 b5fd db3f 87ba 209e 1916 e9bf
00000650: 045a c25e e1c2 f6bf 2990 c7b2 50b2 d2bf
00000660: 06fe 2e9f e720 c13f 293d 2435 aa8a e13f
00000670: e392 c8fa 8694 e5bf ef13 4e56 bfd6 e03f
00000680: a84e 7faa 6e42 d8bf 78b8 bb52 e366 d93f
00000690: 4cbb fb0f 66be c7bf 19f7 9a07 b144 b93f
000006a0: 13ad f4b1 7612 b63f 95ee 635b 33c5 0e40
000006b0: 74d5 9d85 e891 10c0 ef94 7f28 05ea c4bf
000006c0: cb83 c872 e510 e7bf 13fd 07b8 0637 e83f
000006d0: 8a93 ce9a 262b 0740 2306 cb5e a142 e73f
000006e0: d581 c93e dd74 c73f aaca 8ac6 466e 0740
000006f0: 0420 10e6 8754 f6bf 24df ac7d 7577 10c0
00000700: c1d7 0f4c 60fa cebf c57c c28c 7eed f5bf
00000710: 617b 7f72 f964 0640 b7c2 600b 9e42 8e3f
00000720: 62ee 2871 eec5 09c0 f8f0 f9d0 2598 da3f
00000730: d87f 9a24 f855 e4bf da4d 1688 d14e d43f
00000740: 1879 5887 efee fbbf df1d c066 9de7 f73f
00000750: 453e de14 b776 0940 9cfd 3988 3de1 1240
00000760: 94c8 ea3e a798 0340 bef0 bac9 7b2a f73f
00000770: 48ba e1e3 20b6 e93f 040a a009 2217 d73f
00000780: 3bb1 9d76 31fd c13f 0a27 6150 736c ebbf
00000790: 7cd6 14eb 5a78 d6bf 15cc d6c4 d92e ecbf
000007a0: a218 0e14 5b0d f53f 3b2d 6aab 7bc6 c2bf
000007b0: 9ecc 4c4b 2e7e f33f fd63 ded3 ec0d 0740
000007c0: dadf 61da 4f54 dcbf 8f88 4446 867f d63f
000007d0: 99ef d919 4ebe f73f c618 1520 4ecf c33f
000007e0: 7a6b 0f25 324e e23f efdd 47e5 8271 f13f
000007f0: 1c34 c831 ce06 e2bf 3b3d 1c6a 2551 f93f
-0.35312601822197187 0.31739134400165375 -0.6334987048024444 0.26346689397954304 0.11049201742125772 -0.05250522341109657 -4.413262032362539 0.12135292232648998
-2.0279272289313113 0.22567601244888189 -1.0803507582791783 -0.128698206086051 0.5327760926842321 -2.135823984824023 0.5301365853780902 -0.7040576725756831
0.6508116852737521 -0.08416286072662428 -0.11285978564489524 0.839587106748192 0.38311931340738664 -0.463045470995268 -0.835058773574934 0.36480749531227075
-2.3307356412522706 0.5631103168311 -0.5435781392456084 -0.536224809551718 0.08831319219457913 -0.6138724584771336 -0.05974506271128128 2.134357186100966
3.651400106653244 1.2554343007934436 -2.849731297134533 0.6025047748121657 -0.8233337125418744 0.08031696785311719 -1.6571949819820293 -0.9529149441903236
-1.037285258252185 -3.493969075465299 -1.2285512104553205 -1.6775105562231911 -2.6534711482227484 0.1711636664795461 -3.027557846869619 -0.3287753357149343
0.4454555438795338 -0.43358324065132087 -0.7808313219918691 0.3760075676968487 0.24734745579111408 -0.07162273901500996 -0.33557019559608636 -1.01079480018233
-1.2346194556722538 0.41727439895404317 -0.36646620988947654 0.3000948202481614 -0.39668267666812473 0.2367579572102252 -0.47274085834016266 1.2218380620328393
0.4129309492480596 0.5246446092095673 0.9893582192965212 -0.8355328425774794 0.6038377388462811 0.5009279287366174 2.5383434585985376 -1.8227067780163713
-5.906277313459664 1.27360289422293 -4.11264810173879 2.3803693560329573 -0.6490987020068469 -2.1621064272847215 1.4389803519075977 2.43743378768979
0.9137514329460037 -3.165101982960552 -0.6743472573765644 -0.5461978880792248 -0.21358149563104573 0.41571071815394334 0.6059131926160205 -1.6915707851371158
0.3667600625866228 -1.33399901091283 -2.231060697617948 -0.03641639768515192 1.139393494329152 -2.910938039061218 0.6391813088240996 -0.9987281638964294
3.0503462062731463 -0.6038498989435253 0.17783712986765934 1.40002270761969 -2.060292579253167 -1.3014329369680924 -1.9406901750108698 -0.03239384261571782
-1.9950121054983592 1.2306570856144796 -0.08921779606942068 -3.9150817752229234 -2.3734781520518986 -1.1069187867729553 -1.2598912006868013 0.19197390324392857
0.08676544831481689 -1.2490697120072907 0.017896879797245697 0.008273362957223961 0.0860542724297027 0.015617053709919036 -0.05921716595311539 -0.15666251248511828
1.037934877500234 1.2456453724583179 -0.5990904264099127 3.3136133729156856 -2.1669388822267766 1.2465374477030868 -0.1110735992847149 -1.7938453416039608
-0.7605687713831298 -2.595474211322013 1.306101716428907 -1.0967326624628706 1.856830931212377 1.3341807344730858 -1.8569674115019836 -1.2167349834383783
-3.8596837363621175 1.9913589945766113 1.490320143310942 -1.518210466497337 -1.735698980287844 -1.04842107194711 -1.5567937904444356 0.12155631631999782
0.8410693054785014 0.9578196984355228 1.3839202623433644 1.6858235028885897 0.8939553940234528 1.6991705491147244 -1.8391064641235646 -0.10413948225302498
1.92290833819932 -0.324100905252216 1.5932200526961222 -0.9912374147196847 1.7341868793352835 0.13665658872816708 1.7180853242953151 -0.886196652109298
-2.4306660322331157 -3.179506460891561 0.7542782004401147 -0.0014992940840272992 -0.11349955321447992 0.9105049467551689 -0.23950852451399982 3.518343872116582
-0.31729133473086735 -0.8990041376176068 1.368924971936671 1.4246572907333879 -2.9809824952122344 -1.0444914815324042 1.5689591895190358 1.3856874135159651
-1.756124055567349 1.6453308254631018 0.9335445269510447 -1.5442692923937975 -1.1381412583091288 -1.8731911111305277 0.94190708688181 -1.5418890358939226
0.29696592853123066 0.11702823310047397 1.7599872586709358 -0.7445569706581827 -0.41912328102782564 -0.6492849157077432 3.9970576435593865 -2.3772519538651764
-1.8390343256825674 -1.2272155796088966 -2.0709979601829094 -1.1548869274635234 2.9700589489933495 -1.5360259577295514 1.637164538971229 3.702210607435123
0.437360233064988 -0.7839477623400207 -1.4225782109766678 -0.29213349780025283 0.13381667397150937 0.5481768644257602 -0.6743807695498528 0.5262142835277909
-0.37905470514417994 0.39690478400633067 -0.18549800663410065 0.0987043994491298 0.08621923298476401 3.8462893619415106 -4.1424885633072 -0.16339172818621914
-0.7208125345097128 0.7567170709952812 2.896069726399621 0.7268835879733085 0.18325391355302992 2.928845931158624 -1.395637415584134 -4.116659129787681
-0.24201587404212258 -1.3704820154596729 2.7993039078859714 0.014775500032642481 -3.221646198331471 0.4155363598618034 -0.6354943003570908 0.31731069841154425
-1.7458339011132633 1.494046594017952 3.182966387779546 4.719961288966626 2.449537745990776 1.4478719596946088 0.8034824801268963 0.36078692378956156
0.14053934375568553 -0.8569885797416827 -0.35109589535873176 -0.8807190746796346 1.315760687198726 -0.14668222303257913 1.2183058682829038 2.8817993690722674
-0.44264599157713536 0.351533478375253 1.4839612016503223 0.15476395193599596 0.5720453952629747 1.0902127224234126 -0.5633307430558747 1.5823110718664128
